vehicle/tests/golden/issues/issue641/network.onnx (onnx, 103530 bytes, 4 tensors)

StatefulPartitionedCall/sequential/dense_1/MatMul/ReadVariableOp:0 f4 [32, 10]
-0.5633991 -0.93714076 -0.044164535 -0.17603411 0.3463558 0.54825294 -0.05168575 -0.63764864
-0.67093587 -0.35864732 -0.05465303 0.2162535 -0.049409833 -0.7415968 0.049956117 0.38753596
-0.10947668 -0.18760312 0.26002368 -0.20467927 0.34713694 0.3415372 -0.18055616 -0.65058964
-0.18099882 -0.4178798 0.04655346 0.0350929 -0.282505 0.37121865 0.3464666 0.1186606
0.21369804 -0.16322374 -0.17676736 0.3937382 -0.030893741 -0.6227621 0.3407277 0.22468309
-0.3785042 0.5615883 -0.584325 -0.5328526 -0.23645069 -0.6653636 -0.4838773 0.07629515
-0.43274018 0.38122082 -0.16019274 -0.11110026 -0.17793526 0.38325128 0.04808578 -0.37134916
-0.09874901 0.4601608 -0.36572656 0.2997269 -0.14778438 0.44596818 0.21838827 0.29168805
0.39776152 0.23609358 0.021949844 -0.22993912 0.050519336 -0.7558649 -0.1113399 -0.49140823
-0.03512452 -0.2572604 0.0757429 -0.46328402 0.34696868 -0.47123954 0.28545058 -0.016419765
0.00761629 -0.80045605 0.33970413 0.43723655 -0.16517022 0.31728232 -0.13481434 0.08520645
0.10359193 -0.6018133 0.11232897 -0.32356277 -0.25912875 -0.40464616 -0.43038562 0.38428262
-0.3182374 0.44494233 -0.22325261 0.11727632 0.11075447 -0.4160977 -0.03677813 0.28534153
-0.124352664 0.2750805 0.09108441 -0.44508925 0.34478876 0.27438533 -0.08295031 0.62399143
0.47653997 -0.33970267 -0.29082063 -0.30344835 -0.34204566 0.19776332 0.37489364 -0.2298307
0.06721703 -0.2863654 -0.39585233 -0.06930598 0.016549204 0.47315225 -0.34101063 -0.21248354
0.41319686 0.113901004 -0.33971515 0.06816159 -0.08248623 -0.45607865 0.06558365 -0.10394506
-0.3686802 -0.19729242 -0.069682896 0.31776863 0.13146159 -0.042861085 0.0036006754 0.28369665
0.26395813 -0.24017464 -0.1024249 -0.28295606 0.25206065 -0.21720758 0.21810628 0.40005806
0.2986151 -0.31134892 0.24769922 -0.36250624 -0.066263884 -0.4998021 0.31664884 -0.69988275
-0.23177743 -0.1817345 -0.2731056 -0.40559027 -0.24868219 -0.28670847 -0.4808162 0.18036836
0.7036586 0.2766724 -0.0977179 -1.4550811 -0.344552 -0.87903833 -0.4658208 0.6157257
0.48526302 -0.48662534 -0.88810223 -0.34868065 0.028357899 0.37056315 0.32477298 -0.008202676
0.10871805 -0.7110869 0.07903151 -0.5141412 -0.17145784 -0.69774526 -0.2949468 0.31563345
-0.11986107 0.25394717 0.3406321 -0.25896755 -0.18276107 0.16231889 0.11196117 0.15355389
-0.18453218 0.3966211 -0.31341285 0.27003846 0.04558959 -0.35190585 0.12498297 -0.12719196
0.45150286 -0.10252403 -0.109039135 0.027966462 0.10302092 0.023021718 -0.43299338 0.357396
0.10585214 -0.046107333 0.16849199 0.17616268 -0.17648244 0.28656015 0.15280408 0.08639414
-0.083473265 -0.28465453 0.06771831 0.2064576 -0.08127174 0.15076381 -0.34536192 -0.3938779
-0.33757514 0.16103737 0.17365998 -0.081955075 0.45347548 0.40962717 0.28415135 -0.46592695
0.12435863 0.5954378 -0.24217066 0.022799298 0.27125952 -0.75277907 -0.49149713 -1.0946404
-0.07134315 -0.7858152 0.33859906 0.17642705 0.14833713 -0.08068864 0.0887676 -0.40137613
00000000: ec3a 10bf 75e8 6fbf dfe5 34bd 4942 34be
00000010: 8c55 b13e 4e5a 0c3f 70b4 53bd f13c 23bf
00000020: 74c2 2bbf 9fa0 b7be dbdb 5fbd 8f71 5d3e
00000030: f761 4abd 4ad9 3dbf c99e 4c3d 1d6b c63e
00000040: 4f35 e0bd 081b 40be d321 853e 7197 51be
00000050: efbb b13e f7dd ae3e b7e3 38be 0b8d 26bf
00000060: c157 39be 57f4 d5be d7ae 3e3d 93bd 0f3d
00000070: 7fa4 90be 5f10 be3e 1264 b13e 5404 f33d
00000080: a9d3 5a3e 2024 27be 8102 35be 0e98 c93e
00000090: df14 fdbc 566d 1fbf dc73 ae3e 5313 663e
000000a0: 4dcb c1be 40c4 0f3f 5396 15bf 0769 08bf
000000b0: 2120 72be 4555 2abf c4be f7be a240 9c3d
000000c0: 1f90 ddbe 602f c33e 9109 24be 8888 e3bd
000000d0: a934 36be 8339 c43e 98f5 443d 7a21 bebe
000000e0: ec3c cabd 329a eb3e 8340 bbbe ce75 993e
000000f0: ca54 17be f155 e43e 2da1 5f3e 2358 953e
00000100: 66a7 cb3e 84c2 713e 29d0 b33c 2975 6bbe
00000110: 5ded 4e3d 5d80 41bf 2c06 e4bd dc99 fbbe
00000120: bbde 0fbd a3b7 83be 181f 9b3d 9033 edbe
00000130: e1a5 b13e 4f46 f1be 9426 923e be82 86bc
00000140: 1292 f93b b0ea 4cbf b3ed ad3e 78dd df3e
00000150: 6222 29be d472 a23e c50c 0abe b880 ae3d
00000160: 0128 d43d 7010 1abf bb0c e63d 05aa a5be
00000170: 86ac 84be c82d cfbe 815b dcbe b1c0 c43e
00000180: 03f0 a2be 7bcf e33e 559c 64be 912e f03d
00000190: 3dd3 e23d c20a d5be aaa4 16bd 4918 923e
000001a0: 9cac febd 5ad7 8c3e 778a ba3d bde2 e3be
000001b0: 2788 b03e 3c7c 8c3e dae1 a9bd e7bd 1f3f
000001c0: 0cfd f33e 82ed adbe 71e6 94be 955d 9bbe
000001d0: 9c20 afbe 7882 4a3e 0ff2 bf3e bd58 6bbe
000001e0: 15a9 893d 7c9e 92be 28ad cabe 4bf0 8dbd
000001f0: 3292 873c 0341 f23e f298 aebe 4995 59be
00000200: 8a8e d33e ee44 e93d 25ef adbe 4e98 8b3d
00000210: 8aee a8bd 2483 e9be b850 863d 26e1 d4bd
00000220: a7c3 bcbe 0607 4abe e8b5 8ebd 92b2 a23e
00000230: de9d 063e 1b8f 2fbd 4ff9 6b3b b040 913e
00000240: 8525 873e 57f0 75be 25c4 d1bd 9edf 90be
00000250: 180e 813e aa6b 5ebe 4157 5f3e 69d4 cc3e
00000260: 14e4 983e 2069 9fbe dda4 7d3e 6b9a b9be
00000270: 5cb5 87bd 10e6 ffbe cc1f a23e 842b 33bf
00000280: 1057 6dbe 9c18 3abe 7fd4 8bbe 87a9 cfbe
00000290: 8ba6 7ebe 74cb 92be 8a2d f6be 7cb2 383e
000002a0: f822 343f 01a8 8d3e 5320 c8bd 1940 babf
000002b0: 1f69 b0be a808 61bf 1080 eebe 33a0 1d3f
000002c0: 6574 f83e f526 f9be ab5a 63bf 4586 b2be
000002d0: d34e e83c 74ba bd3e a548 a63e 8464 06bc
000002e0: 92a7 de3d cb09 36bf 46db a13d c29e 03bf
000002f0: a592 2fbe 6f9f 32bf 4403 97be b59a a13e
00000300: b879 f5bd 5d05 823e 5567 ae3e 6597 84be
00000310: b825 3bbe ec36 263e e64b e53d 3b3d 1d3e
00000320: 01f6 3cbe ec11 cb3e a677 a0be 7b42 8a3e
00000330: 26bc 3a3d 012d b4be 12f7 ff3d 9c3e 02be
00000340: 622b e73e 1ef8 d1bd e94f dfbd ec19 e53c
00000350: a2fc d23d 0b98 bc3c 4fb1 ddbe 9cfc b63e
00000360: 02c9 d83d 0bdb 3cbd 2a89 2c3e fd63 343e
00000370: d0b7 34be 03b8 923e ac78 1c3e 69ef b03d
00000380: 08f4 aabd 3dbe 91be e6af 8a3d 9f69 533e
00000390: cc71 a6bd d461 1a3e 47d3 b0be 5daa c9be
000003a0: a6d6 acbe fbe6 243e ecd3 313e 10d8 a7bd
000003b0: f02d e83e a7ba d13e 497c 913e fa8d eebe
000003c0: bdaf fe3d 9d6e 183f 96fb 77be 98c5 ba3c
000003d0: 87e2 8a3e 21b6 40bf 83a5 fbbe 2d1d 8cbf
000003e0: 5c1c 92bd 2f2b 49bf db5c ad3e 4ba9 343e
000003f0: b0e5 173e 1640 a5bd cacb b53d 2c81 cdbe

StatefulPartitionedCall/sequential/dense_1/BiasAdd/ReadVariableOp:0 f4 [10]
0.06797206 -0.38591304 0.10331395 0.2969337 -0.32996863 0.4774128 0.0982479 0.09369658
-0.3262643 -0.52614343
00000000: ef34 8b3d 6596 c5be 4496 d33d b207 983e
00000010: a6f1 a8be 736f f43e 3236 c93d fee3 bf3d
00000020: 1d0c a7be 56b1 06bf

StatefulPartitionedCall/sequential/dense/MatMul/ReadVariableOp:0 f4 [784, 32]
-0.11397262 -0.06806947 0.012554568 -0.10257559 -0.033150043 0.12973066 0.04096356 0.124976784
0.05207221 -0.21018137 0.11716352 -0.24278787 -0.16374697 -0.020416876 0.012908749 -0.21092893
-0.0686124 0.17293338 0.03264501 0.027677268 0.26415327 0.16149358 -0.044108864 0.14016527
0.110701874 0.051684707 -0.14621532 0.16943346 0.12597586 -0.05601047 -0.051833205 0.16166995
-0.18703358 0.06995682 0.02198589 0.022259379 0.0073873005 0.24926944 -0.09362259 -0.14235337
0.07449126 0.048899215 -0.13408767 -0.08769305 -0.15562662 -0.1583428 0.043035485 -0.1575152
-0.1531187 0.20565526 0.12687084 -0.023106694 -0.05276598 -0.040249325 -0.07135909 -0.16458923
0.2707226 0.17409533 -0.11102814 0.2031807 -0.116288155 0.13442542 -0.28101653 0.22458997
-0.08704162 -0.074707374 0.019530639 0.020310404 0.035160147 0.19935389 -0.254381 -0.10186751
-0.0018433601 0.1050596 -0.14679007 -0.05645543 -0.37686247 -0.31574985 0.023078889 -0.12418925
-0.23257965 0.2577926 0.31099987 0.052034374 -0.16717082 -0.12729119 0.04127077 -0.12981789
0.10549149 0.3159839 -0.23361945 0.11181561 -0.15638474 0.09209146 -0.12038383 0.23015177
-0.20969918 0.026423333 0.039770942 0.12293987 0.03356968 -0.16958085 -0.32222062 -0.034054793
-0.1582737 0.09346417 -0.07447328 0.18587896 0.072173156 -0.101762824 0.0515605 0.100611664
-0.24594226 0.108571626 -0.0024635366 -0.027893841 -0.033504076 -0.009966916 -0.0059475526 -0.19920486
-0.0063918484 0.052859034 -0.32944813 -0.17385285 -0.05968251 0.018630221 -0.010483606 0.05344506
-0.2851671 0.023215247 -0.10722234 -0.09275609 0.14112379 -0.016328664 0.09935574 -0.10166146
-0.5052258 -0.24174622 -0.22740151 0.13780968 -0.18537933 0.060302775 -0.07919428 -0.16565184
-0.26583534 0.35779914 0.14830881 -0.034461845 0.184375 0.2386837 -0.031133529 -0.1467954
0.0068565495 0.060209066 -0.30268478 0.13307917 0.004968662 -0.34560668 -0.11425663 0.23444383
-0.524774 -0.066850595 -0.31566545 -0.22947426 0.11384073 0.1958081 0.22495766 -0.22601728
-0.2747862 -0.18858895 0.06963732 0.17339376 0.025587264 0.027327223 0.036598533 -0.2851336
-0.055244934 0.2147527 -0.03075494 -0.00783362 0.625702 0.41577977 -0.058621667 0.052551772
0.0645841 -0.17851262 -0.12231041 0.09218642 0.1466319 -0.4524749 -0.316101 0.15412384
-0.6853384 -0.01925744 -0.22538315 -0.3318922 0.07669411 0.4317962 0.48860154 -0.4992005
-0.03892698 -0.0143215265 0.01888003 0.12538296 0.21335608 0.28636482 -0.013983121 -0.26213986
-0.112259164 -0.07557958 -0.13964514 -0.07219036 0.6747146 0.3691889 0.0348204 -0.07341249
0.020568892 -0.511098 -0.004995727 0.11850511 0.1709166 -0.35547882 -0.48994702 0.17140833
-0.70882595 0.07845086 -0.14047977 -0.18884853 0.024540616 0.20854554 0.24540165 -0.43995172
-0.10349185 0.22418945 -0.20653903 0.21235318 -0.0039666444 0.35308918 -0.0107894335 -0.0009252874
-0.14440611 -0.004935646 0.23721305 0.004363444 0.22768384 0.35573074 0.047283135 -0.36648273
0.060897846 0.011396084 -0.044105805 0.26815313 0.18499897 -0.486484 -0.37452573 0.38327256
00000000: 7a6a e9bd 0268 8bbd adb1 4d3c 2713 d2bd
00000010: 57c8 07bd 1dd8 043e 68c9 273d d4f3 ff3d
00000020: ab49 553d c939 57be 6df3 ef3d 629d 78be
00000030: 49ad 27be 4b41 a7bc 387f 533c c1fd 57be
00000040: a884 8cbd 7315 313e c6b6 053d 70bb e23c
00000050: 193f 873e 935e 253e 7fab 34bd 7c87 0f3e
00000060: aab7 e23d 58b3 533d 78b9 15be f77f 2d3e
00000070: d1ff 003e 3c6b 65bd 0e4f 54bd cf8c 253e
00000080: bb85 3fbe 8545 8f3d c11b b43c 4d59 b63c
00000090: 2b11 f23b 7d40 7f3e 33bd bfbd 15c5 11be
000000a0: e08e 983d 8b4a 483d 474e 09be 6a98 b3bd
000000b0: 965c 1fbe 9d24 22be fa45 303d aa4b 21be
000000c0: 26cb 1cbe 4b97 523e 6eea 013e 404a bdbc
000000d0: 2421 58bd 7adc 24bd b724 92bd 148a 28be
000000e0: 279c 8a3e 0c46 323e b962 e3bd 9a0e 503e
000000f0: 7c28 eebd d1a6 093e 66e1 8fbe eafa 653e
00000100: e042 b2bd 2e00 99bd b8fe 9f3c 0162 a63c
00000110: 1604 103d 6d23 4c3e 3a3e 82be ea9f d0bd
00000120: e79c f1ba 7d29 d73d 2350 16be cf3d 67bd
00000130: 1ef4 c0be f7a9 a1be f00f bd3c ef56 febd
00000140: 5c29 6ebe 64fd 833e 603b 9f3e ff21 553d
00000150: d42e 2bbe 9f58 02be 8a0b 293d fbee 04be
00000160: ec0b d83d a4c8 a13e f039 6fbe 95ff e43d
00000170: 5223 20be 739a bc3d cc8b f6bd e8ac 6b3e
00000180: 62bb 56be bf75 d83c dbe6 223d e6c7 fb3d
00000190: 5c80 093d 9aa6 2dbe 1afa a4be 0a7d 0bbd
000001a0: 8012 22be 256a bf3d 7285 98bd 0e57 3e3e
000001b0: 85cf 933d 0769 d0bd 1a31 533d 7d0d ce3d
000001c0: 4ad8 7bbe cd5a de3d 4973 21bb a081 e4bc
000001d0: 923b 09bd 474c 23bc b0e3 c2bb 5cfc 4bbe
000001e0: b672 d1bb b782 583d 6dad a8be 7b06 32be
000001f0: a675 74bd 689e 983c 6ec3 2bbc 35e9 5a3d
00000200: 6c01 92be e72d be3c 6397 dbbd e8f6 bdbd
00000210: c182 103e b1c3 85bc 067b cb3d e233 d0bd
00000220: 7a56 01bf 528c 77be f1db 68be fb1d 0d3e
00000230: 14d4 3dbe 0b00 773d 9c30 a2bd a3a0 29be
00000240: 921b 88be 7331 b73e 44de 173e dd27 0dbd
00000250: cdcc 3c3e 8069 743e be0b ffbc 8951 16be
00000260: e8ac e03b c89d 763d 80f9 9abe e845 083e
00000270: 28d0 a23b 5cf3 b0be 61ff e9bd 0b12 703e
00000280: 9757 06bf f7e8 88bd e79e a1be 4dfb 6abe
00000290: 5425 e93d eb81 483e 4d5b 663e 1371 67be
000002a0: c7b0 8cbe 761d 41be 039e 8e3d 228e 313e
000002b0: 629c d13c 57dd df3c 58e8 153d 08fd 91be
000002c0: 8348 62bd 22e8 5b3e c9f1 fbbc 9558 00bc
000002d0: 022e 203f 16e1 d43e 461d 70bd 8740 573d
000002e0: ab44 843d 03cc 36be e17d fabd 3ccc bc3d
000002f0: ac26 163e caaa e7be fed7 a1be a4d2 1d3e
00000300: 5672 2fbf c7c1 9dbc d7ca 66be c6ed a9be
00000310: cd11 9d3d 6414 dd3e fb29 fa3e 3597 ffbe
00000320: e671 1fbd d6a4 6abc 4baa 9a3c 6464 003e
00000330: 047a 5a3e 699e 923e 7619 65bc 3237 86be
00000340: 22e8 e5bd 78c9 9abd 23ff 0ebe 8ad8 93bd
00000350: 19ba 2c3f 5406 bd3e d69f 0e3d 4a59 96bd
00000360: 1880 a83c 52d7 02bf 32b3 a3bb cfb2 f23d
00000370: c304 2f3e 5201 b6be 56da fabe aa85 2f3e
00000380: 9e75 35bf d8aa a03d eed9 0fbe 8261 41be
00000390: 6709 c93c f68c 553e 924a 7b3e 5a41 e1be
000003a0: 89f3 d3bd eb91 653e f87e 53be 1d73 593e
000003b0: a0fa 81bb 1bc8 b43e 2ac6 30bc fc8e 72ba
000003c0: 32df 13be 33bb a1bb fae7 723e 39fb 8e3b
000003d0: f425 693e 5722 b63e f6ab 413d a0a3 bbbe
000003e0: 0570 793d a4b6 3a3c 4aa8 34bd 5e4b 893e
000003f0: 5f70 3d3e 6e14 f9be d6c1 bfbe 4d3c c43e

StatefulPartitionedCall/sequential/dense/BiasAdd/ReadVariableOp:0 f4 [32]
0.19105636 0.04786416 -0.2165348 0.17219526 -0.43434978 -0.08974258 0.16315065 -0.21422656
0.64597 0.62899786 0.19068372 0.089294694 0.06393527 -0.41079733 -0.012558322 -0.24264033
-0.3801761 0.6910037 0.030218538 -0.038940255 -0.21717732 0.375667 -0.025790965 0.12134003
-0.035858292 0.18389632 0.87446105 0.14572756 0.55375344 -0.0867063 0.24951327 0.61628336
00000000: 47a4 433e 360d 443d 4cbb 5dbe f453 303e
00000010: 1863 debe f5ca b7bd f710 273e 355e 5bbe
00000020: 4a5e 253f 0106 213f 9842 433e 23e0 b63d
00000030: 7ff0 823d 0754 d2be 6cc1 4dbc b576 78be
00000040: 71a6 c2be 9ee5 303f de8c f73c d17f 1fbd
00000050: bb63 5ebe 6d57 c03e 9347 d3bc 1f81 f83d
00000060: 25e0 12bd 514f 3c3e aedc 5f3f 9b39 153e
00000070: c9c2 0d3f 1393 b1bd 6880 7f3e bfc4 1d3f
