examples/windController/controller.onnx (onnx, 161057 bytes, 5 tensors)

sequential/dense_3/MatMul/ReadVariableOp:0 f4 [2, 1]
-2.0 1.0
00000000: 0000 00c0 0000 803f

sequential/dense_2/MatMul/ReadVariableOp:0 f4 [10000, 2]
1.0 -3.9842255e-14 -2.1681863e-14 1.0 4.1328533e-14 -2.6189433e-15 9.670207e-14 -5.605257e-14
4.462719e-14 -4.5488044e-14 -7.361483e-14 -9.2189426e-14 -2.3274778e-14 -7.2927016e-14 8.1527294e-14 8.7309785e-14
1.7738442e-14 -1.580625e-14 4.550039e-15 -3.0762045e-14 2.539388e-16 1.4462835e-14 6.663518e-14 -6.406271e-14
7.66493e-14 -1.8074765e-14 7.997084e-14 -4.5257126e-14 3.7097505e-14 -6.6441874e-14 5.3299115e-14 -7.435834e-14
-1.7372158e-14 -5.9339435e-14 9.532118e-14 7.491061e-15 -6.543375e-14 -1.7133527e-14 -8.114248e-14 -4.648592e-14
-7.5603484e-14 7.605586e-14 7.0754404e-14 8.020345e-16 3.845627e-14 -6.1770474e-14 -9.7560564e-14 -5.9847675e-14
-1.6480298e-14 2.6166106e-14 -4.6965873e-14 -6.887807e-14 3.544991e-14 -3.052362e-14 3.0120617e-14 6.024169e-14
-4.6505775e-14 -3.379812e-14 5.899899e-14 -5.475504e-14 -5.0386507e-14 -7.392058e-14 7.088163e-14 9.769895e-16
5.269119e-14 6.49656e-14 -5.52027e-14 -4.7827492e-14 -3.162317e-14 2.0042431e-14 -3.373396e-14 9.122726e-14
-2.306925e-14 -9.076362e-14 9.893823e-14 -3.2874745e-14 2.625396e-14 -8.6051175e-14 -4.123596e-14 -3.1832834e-15
5.0014168e-14 -2.979052e-14 7.407617e-14 8.427057e-14 7.3337766e-14 1.6150531e-14 1.4966525e-14 -3.9532515e-14
-7.6891205e-14 -9.421108e-14 -3.1621603e-14 4.2201767e-14 5.3433778e-15 -5.5174587e-15 8.5634326e-14 -2.1948077e-14
8.01012e-15 -4.914391e-14 -2.2201526e-14 -5.760827e-14 4.0655223e-14 3.9218645e-14 -1.5139277e-14 -4.9117303e-14
-4.1906396e-14 8.0523465e-14 -3.3612744e-14 5.4463062e-15 8.895636e-15 5.692543e-15 -3.304914e-14 -7.107962e-15
-3.2384875e-14 -6.086164e-14 5.0704768e-14 -9.829711e-14 5.931464e-14 -2.0579443e-14 -4.0002276e-14 -8.007058e-14
9.655438e-14 -4.7826692e-14 -2.8782915e-14 -8.980041e-14 9.5208014e-14 -3.927423e-14 -9.618879e-14 -9.0574134e-14
-2.571856e-14 -1.9862374e-14 -3.7242035e-15 -6.7856724e-14 3.2807324e-14 -8.506031e-14 -3.98881e-14 -6.759146e-14
-1.01889254e-14 -2.2854118e-14 -7.028664e-15 -2.6663169e-14 4.0022297e-14 -2.6265574e-14 -7.811508e-14 -2.4238719e-14
1.36168195e-14 -4.1033566e-14 -1.0041104e-14 4.051355e-14 -2.127099e-15 -4.299159e-14 -7.164582e-14 -6.6066185e-15
3.8055015e-14 -3.828347e-14 -8.893081e-14 -1.6613775e-14 7.343218e-14 3.292093e-14 4.9689514e-14 8.840548e-15
-9.252336e-14 2.1339535e-14 -3.5039983e-15 -9.9997064e-14 2.5903704e-14 2.5122277e-14 9.74623e-15 -8.834831e-14
5.4789144e-14 4.6188043e-14 -2.8145392e-14 3.0375747e-14 8.8331266e-14 5.849053e-14 2.7402877e-15 -5.258284e-14
8.816295e-14 8.571681e-14 5.6053967e-14 9.685534e-14 -9.3391054e-14 -8.367146e-14 -3.6283483e-14 -8.167367e-14
-9.2139275e-14 6.870216e-14 6.8329253e-14 -1.7548271e-14 3.7342045e-15 -7.230918e-14 8.6372905e-14 -5.670351e-14
4.7437616e-14 -5.917026e-14 -1.494046e-14 -6.4954357e-15 7.243356e-15 5.3308205e-14 9.7415355e-14 -7.27195e-14
2.742515e-14 3.363477e-14 1.4218373e-14 -2.2002184e-14 2.0513608e-14 -2.0963415e-14 -6.0886436e-14 -8.0500304e-14
-7.1838924e-14 -5.1609724e-14 9.372315e-14 -4.932173e-14 -3.971642e-14 2.0897617e-14 3.8487487e-15 6.035056e-15
2.0060913e-14 -9.453443e-14 -5.4660686e-14 8.0779994e-14 -5.321071e-14 8.6315056e-14 3.473489e-14 6.405611e-14
-1.30830846e-14 -4.8621636e-14 -6.8847766e-14 3.374591e-14 1.608315e-14 9.706308e-14 4.6503572e-14 -9.108114e-14
1.9496062e-14 7.9509844e-14 -7.46431e-14 6.464181e-14 5.3486458e-14 -8.058545e-14 9.93396e-14 1.3526625e-14
-1.1458251e-14 1.4650179e-14 -6.457223e-14 4.181092e-14 7.8401336e-14 3.8537804e-14 -4.6880526e-14 8.271113e-14
-5.23945e-14 -8.041335e-14 4.2337617e-14 3.2486702e-14 -5.784525e-14 5.1019695e-14 2.7498474e-14 8.776819e-14
00000000: 0000 803f fe6e 33a9 f94a c3a8 0000 803f
00000010: 8e20 3a29 fab6 3ca7 f3c0 d929 3770 7ca9
00000020: a6fb 4829 25dc 4ca9 0fc4 a5a9 9697 cfa9
00000030: fca3 d1a8 9037 a4a9 4995 b729 aa9a c429
00000040: 10c6 9f28 bb5e 8ea8 b4ee a327 398a 0aa9
00000050: c162 9225 0745 8228 910c 9629 a341 90a9
00000060: 5099 ac29 92cd a2a8 0d14 b429 ead1 4ba9
00000070: 8312 2729 229d 95a9 b209 7029 aa70 a7a9
00000080: 7879 9ca8 db9e 85a9 eba4 d629 6cf2 0628
00000090: fd57 93a9 3953 9aa8 74b7 b6a9 9e5a 51a9
000000a0: 713e aaa9 3843 ab29 2353 9f29 b32b 6726
000000b0: 1031 2d29 4118 8ba9 d6af dba9 d6c3 86a9
000000c0: fb70 94a8 efae eb28 f783 53a9 8119 9ba9
000000d0: f7a6 1f29 5777 09a9 b5a6 0729 f8a6 8729
000000e0: 8271 51a9 9436 18a9 9ada 8429 4398 76a9
000000f0: b0eb 62a9 5074 a6a9 7a9c 9f29 8dcc 8c26
00000100: ce4c 6d29 1e4a 9229 619c 78a9 5865 57a9
00000110: 086b 0ea9 b386 b428 9cec 17a9 ef6c cd29
00000120: 12ca cfa8 aa61 cca9 02ca de29 000e 14a9
00000130: 8379 ec28 20c5 c1a9 d3b5 39a9 3761 65a7
00000140: 693e 6129 222a 06a9 01ce a629 adc2 bd29
00000150: 5824 a529 9778 9128 75ce 8628 e309 32a9
00000160: c324 ada9 fd24 d4a9 3a69 0ea9 530f 3e29
00000170: f683 c027 93c9 c6a7 d4d4 c029 d2b0 c5a8
00000180: 294c 1028 1253 5da9 3cf9 c7a8 e8b8 81a9
00000190: 4818 3729 05a0 3029 cc5c 88a8 6534 5da9
000001a0: c9ba 3ca9 9e52 b529 db60 17a9 4f39 c427
000001b0: e13f 2028 7118 cd27 10d7 14a9 b00b 00a8
000001c0: 38d9 11a9 590c 89a9 9e5a 6429 6d58 dda9
000001d0: 9090 8529 f75c b9a8 7c27 34a9 8c4d b4a9
000001e0: cf6b d929 6c64 57a9 71a0 01a9 6936 caa9
000001f0: af63 d629 1be0 30a9 1099 d8a9 6ff4 cba9
00000200: f6a6 e7a8 84e7 b2a8 b72d 86a7 bdcc 98a9
00000210: 45c0 1329 ee89 bfa9 d9a3 33a9 d333 98a9
00000220: 208c 37a8 02da cda8 fc3b fda7 1529 f0a8
00000230: 913e 3429 4a94 eca8 47e6 afa9 ae52 daa8
00000240: 7f4c 7528 7bcc 38a9 6be2 34a8 f174 3629
00000250: 0d46 19a7 ee9d 41a9 0155 a1a9 4d07 eea7
00000260: 7262 2b29 d669 2ca9 1f41 c8a9 c2a4 95a8
00000270: c55a a529 4043 1429 1cc8 5f29 d541 1f28
00000280: 1658 d0a9 9e35 c028 5c7d 7ca7 622c e1a9
00000290: e051 e928 0748 e228 8d92 2f28 55f1 c6a9
000002a0: 95bf 7629 3003 5029 db82 fda8 dacc 0829
000002b0: 82e7 c629 7fb5 8329 6375 4527 e3cf 6ca9
000002c0: 7b86 c629 6004 c129 d371 7c29 4d19 da29
000002d0: 474c d2a9 5069 bca9 0268 23a9 aae9 b7a9
000002e0: ad7a cfa9 19b4 9a29 22dd 9929 8f0f 9ea8
000002f0: f589 8627 68d3 a2a9 977e c229 b25e 7fa9
00000300: d9a3 5529 553d 85a9 5b92 86a8 d205 eaa7
00000310: 157c 0228 2d14 7029 215c db29 f0bf a3a9
00000320: 1706 f728 407a 1729 5611 8028 952d c6a8
00000330: 29c5 b828 58d2 bca8 a41a 89a9 4445 b5a9
00000340: 52c4 a1a9 f66d 68a9 b80b d329 1520 5ea9
00000350: eadd 32a9 a03a bc28 71aa 8a27 916f d927
00000360: 51b1 b428 63df d4a9 7b2b 76a9 7fe6 b529
00000370: c6a3 6fa9 3e5d c229 9a6e 1c29 d53d 9029
00000380: 14af 6ba8 eef8 5aa9 0908 9ba9 63fa 1729
00000390: 38dd 9028 0e91 da29 f86e 5129 b418 cda9
000003a0: dc9a af28 4e0a b329 d114 a8a9 778f 9129
000003b0: b0e1 7029 5976 b5a9 61b1 df29 8cac 7328
000003c0: db69 4ea8 03f5 8328 5b67 91a9 b54c 3c29
000003d0: 4b8b b029 108f 2d29 9121 53a9 b83f ba29
000003e0: bff6 6ba9 2413 b5a9 f3ab 3e29 9e4e 1229
000003f0: 8441 82a9 b4c5 6529 2aaf f728 eba2 c529

sequential/dense_1/MatMul/ReadVariableOp:0 f4 [2, 10000]
1.0 -1.5885684e-14 -4.821665e-14 2.2549442e-15 -1.9013172e-14 5.675972e-14 -3.9337454e-14 -4.680609e-15
1.6676408e-14 8.1622575e-14 9.373711e-16 -4.3632432e-14 5.116084e-14 2.36738e-14 -4.989873e-14 8.194925e-14
9.6557094e-14 6.204345e-14 8.043319e-14 -3.7970485e-14 4.596635e-14 7.976766e-14 3.6796785e-14 -5.571457e-15
-7.985976e-14 -1.3165633e-14 2.2177394e-14 8.260221e-14 9.332127e-14 -4.5980447e-15 7.3061986e-14 -4.790154e-14
6.100556e-14 9.739861e-15 -9.719166e-14 4.394094e-14 -2.0235292e-14 6.496899e-14 3.363064e-14 -9.9771435e-14
-1.2844267e-15 7.3520556e-14 -5.1217826e-14 -3.4959127e-14 7.409425e-14 -6.178658e-14 1.3502148e-14 -5.2276814e-14
9.350805e-14 6.06359e-14 -1.0406086e-14 -8.391084e-14 -3.5989078e-14 1.5881285e-15 8.656677e-14 -7.818843e-14
1.0253449e-14 4.131228e-14 9.488182e-15 6.2893375e-14 8.056722e-15 9.276771e-14 2.0637126e-14 1.7523413e-14
-1.1002195e-14 1.9257372e-14 -2.301977e-14 1.5130202e-14 -4.19341e-14 -6.2121735e-14 -6.265409e-14 2.2554636e-14
3.1331877e-14 -4.6938017e-15 -8.203513e-14 5.1520786e-14 7.535408e-14 8.46762e-14 6.8492046e-14 7.963462e-14
8.461649e-14 8.119985e-15 -2.174079e-14 4.105668e-14 -4.4873176e-14 6.232574e-14 6.989719e-14 7.900779e-14
1.7960236e-14 8.9952975e-14 1.5939002e-14 -9.887378e-15 3.2049077e-14 9.925157e-14 8.3388246e-14 5.8665014e-14
-8.3525404e-14 2.2556621e-14 -2.7111596e-15 2.6029468e-14 6.901551e-14 -5.1392877e-14 4.6297845e-14 -7.657314e-14
-5.590789e-14 5.8916596e-14 -3.349277e-14 6.318262e-14 -7.9878493e-14 -7.07283e-14 3.9534128e-14 -9.0953185e-14
1.4773207e-14 8.2003204e-14 6.8395937e-15 3.6117827e-14 -9.466064e-14 2.6999982e-14 2.1267683e-14 1.5190589e-14
-2.1758118e-14 -2.5972012e-14 9.610333e-14 -9.272159e-14 -9.56727e-14 9.220626e-14 -6.300561e-14 -7.5220964e-14
-5.78847e-14 6.014932e-14 8.739383e-14 -9.544348e-14 -1.4876233e-14 -7.969996e-14 -4.801602e-14 -5.5834145e-14
2.9385145e-14 -2.9941205e-14 -6.393642e-14 7.2730103e-16 -9.212426e-14 -7.981575e-14 9.764703e-14 -6.012884e-14
-2.828894e-14 4.631966e-14 6.7665315e-14 8.369641e-14 -6.611508e-14 3.4528112e-14 9.330978e-14 -8.838981e-14
3.524036e-14 6.908492e-14 -3.1537493e-14 -4.9862532e-14 1.9358279e-14 -1.15371935e-14 -6.5036104e-14 -5.674917e-15
-1.801892e-14 1.3822548e-14 1.720026e-15 -3.77108e-14 -2.8569662e-14 6.7532236e-14 -4.9813466e-14 1.2120044e-14
-9.751274e-14 4.8314875e-14 -3.281669e-14 -9.08607e-14 -4.3823367e-14 -5.1973918e-14 9.062587e-14 -2.9554887e-14
-4.2424418e-14 -2.8159761e-14 8.9381166e-14 2.674957e-14 2.421537e-14 4.312387e-14 -2.2396552e-14 -1.7116403e-14
3.0166574e-14 -9.9695154e-14 -6.153809e-14 -3.3119662e-14 -5.211681e-14 2.747988e-14 -2.4270386e-14 7.508468e-14
1.3630284e-14 -1.711872e-14 -1.9546585e-14 4.0365924e-14 -1.635469e-14 3.2439177e-14 -9.0644065e-14 -1.0929562e-14
-4.8154616e-14 -6.8462685e-14 5.5146262e-15 -2.5468798e-15 1.2280985e-14 5.1096954e-14 7.677503e-14 -1.0834659e-15
-3.758835e-14 -6.621553e-15 6.180917e-14 7.500326e-14 6.2482985e-14 -6.239974e-14 9.988407e-14 2.6617751e-14
-8.330659e-14 4.511087e-14 9.7364296e-14 -1.9636636e-14 3.5703e-14 -3.6764574e-14 -5.729507e-14 4.3464828e-14
-9.9528485e-14 6.454628e-14 5.6691953e-15 -8.044313e-14 -7.621922e-14 2.9853083e-14 7.473076e-14 -4.400345e-14
9.5703034e-14 -7.996386e-14 7.078762e-14 -2.0660765e-14 -8.3730914e-14 -4.505723e-14 -9.404363e-15 5.8468306e-14
7.227198e-14 -7.331589e-14 4.1731056e-15 3.0156646e-14 -3.0589395e-14 7.4372766e-14 -4.4318038e-14 -9.6285135e-14
-9.1867344e-14 3.6199356e-14 1.16711475e-14 8.930051e-14 8.768776e-14 8.197024e-14 -9.159909e-14 4.9826964e-14
00000000: 0000 803f e515 8fa8 0326 59a9 617c 2227
00000010: 6441 aba8 809f 7f29 ff28 31a9 00a3 a8a7
00000020: 2e35 9628 36cc b729 e416 8726 c580 44a9
00000030: 6f68 6629 113c d528 52b9 60a9 8788 b829
00000040: 606d d929 9db5 8b29 941e b529 fd00 2ba9
00000050: 9803 4f29 ed9e b329 ceb7 2529 9fbb c8a7
00000060: 04d4 b3a9 c42b 6da8 97c1 c728 ef00 ba29
00000070: 0d24 d229 7aa9 a5a7 5e85 a429 b7ba 57a9
00000080: 505f 8929 2e75 2f28 2ddb daa9 74e4 4529
00000090: 6843 b6a8 134c 9229 7d75 1729 51aa e0a9
000000a0: fb1a b9a6 b78d a529 22aa 66a9 2171 1da9
000000b0: 6dd8 a629 8a21 8ba9 ab3b 7328 106f 6ba9
000000c0: b98f d229 378a 8829 9a75 3ba8 4ef3 bca9
000000d0: 9514 22a9 9adf e426 58ee c229 9010 b0a9
000000e0: b0b5 3828 d10d 3a29 84ec 2a28 909f 8d29
000000f0: 1223 1128 f2e4 d029 f9e1 b928 3dd6 9d28
00000100: ab32 46a8 7a74 ad28 fa57 cfa8 df47 8828
00000110: bada 3ca9 bee2 8ba9 a015 8da9 7327 cb28
00000120: 321b 0d29 ae1c a9a7 08ba b8a9 6c07 6829
00000130: abae a929 82ac be29 fa3a 9a29 3c52 b329
00000140: 168a be29 d246 1228 d9d2 c3a8 21e7 3829
00000150: 4017 4aa9 5858 8c29 fd64 9d29 e4e8 b129
00000160: 7cc5 a128 5c8e ca29 d690 8f28 7c1d 32a8
00000170: 1256 1029 a27e df29 0dc6 bb29 141a 8429
00000180: 1e15 bca9 072c cb28 115c 43a7 de73 ea28
00000190: bc68 9b29 f473 67a9 c881 5029 696d aca9
000001a0: 69c9 7ba9 1bab 8429 89d6 16a9 4d46 8e29
000001b0: d1de b3a9 1744 9fa9 bf0b 3229 f1ce cca9
000001c0: b210 8528 a1a7 b829 1e6c f627 05a9 2229
000001d0: 2528 d5a9 b831 f328 f08f bf28 1dd3 8828
000001e0: cefa c3a8 62ef e9a8 cc67 d829 5cca d0a9
000001f0: 8e6f d7a9 4aa1 cf29 43e0 8da9 ef61 a9a9
00000200: 4258 82a9 b971 8729 1dcb c429 6ceb d6a9
00000210: 42fe 85a8 e677 b3a9 b43e 58a9 6374 7ba9
00000220: c456 0429 dcd7 06a9 d6f8 8fa9 58a1 5126
00000230: 0572 cfa9 a6ba b3a9 aee1 db29 eb65 87a9
00000240: dbcd fea8 ef9a 5029 665e 9829 b277 bc29
00000250: c0e0 94a9 3480 1b29 6d1d d229 4209 c7a9
00000260: 5eb5 1e29 bf90 9b29 4108 0ea9 968f 60a9
00000270: 275d ae28 ead5 4fa8 c372 92a9 df75 cca7
00000280: cd4c a2a8 4001 7928 c2e1 f726 98d5 29a9
00000290: 94aa 00a9 af11 9829 0457 60a9 d655 5a28
000002a0: 4494 dba9 4297 5929 11cb 13a9 a199 cca9
000002b0: e75c 45a9 d911 6aa9 4212 cc29 771a 05a9
000002c0: 0610 3fa9 fda3 fda8 bc44 c929 4ff0 f028
000002d0: d71c da28 7036 4229 efba c9a8 bd2b 9aa8
000002e0: b1db 0729 587e e0a9 4b92 8aa9 5f28 15a9
000002f0: 97b6 6aa9 4a84 f728 b39b daa8 5f13 a929
00000300: 978a 7528 1531 9aa8 5b0f b0a8 beca 3529
00000310: 594f 93a8 d317 1229 bf1c cca9 b5e3 44a8
00000320: 7ede 58a9 0d2a 9aa9 73af c627 a485 37a7
00000330: 0c3c 5d28 c71e 6629 cbe1 ac29 d624 9ca6
00000340: 6b48 29a9 0c91 eea7 902e 8b29 70e4 a829
00000350: fdb2 8c29 0083 8ca9 3feb e029 5bc0 ef28
00000360: fb96 bba9 4b29 4b29 b23e db29 00df b0a8
00000370: c2ca 2029 ab92 25a9 5c04 81a9 89bf 4329
00000380: 441e e0a9 6658 9129 1941 cc27 4f24 b5a9
00000390: 64a1 aba9 4372 0629 5a47 a829 862c 46a9
000003a0: 0b81 d729 0710 b4a9 4966 9f29 7b18 baa8
000003b0: 968b bca9 73eb 4aa9 f869 29a8 afa8 8329
000003c0: f6bd a229 bc17 a5a9 1b5a 9627 3fd0 0729
000003d0: 2cc3 09a9 fb78 a729 3897 47a9 9ad0 d8a9
000003e0: ebdd cea9 0407 2329 ab3f 5228 3d16 c929
000003f0: 8d74 c529 a094 b829 4843 cea9 9466 6029

sequential/dense/MatMul/ReadVariableOp:0 f4 [2, 2]
8.0 6.888437e-14 5.159088e-14 8.0
00000000: 0000 0041 231d 9b29 3c58 6829 0000 0041

sequential/dense/BiasAdd/ReadVariableOp:0 f4 [2]
-4.0 -4.0
00000000: 0000 80c0 0000 80c0
